NNs/tiny_llm_fp32.pth (torch, 591835 bytes, 5 tensors)

embed.weight f4 [61, 128]
000000 49 aa d2 bf d5 74 9e 3d 6d 77 33 bf 30 ce 24 bf
       -1.6458217 0.07737128 -0.70104104 -0.6437712
000010 57 ab 29 c0 61 f7 30 3f cc 86 3d bd bd 59 06 40
       -2.6510828 0.6912747 -0.04627113 2.0992272
000020 ce 56 81 bf 06 b8 ed 3f 76 05 36 bf f4 aa 51 bf
       -1.0104616 1.8571784 -0.7110208 -0.8190148
000030 23 a7 b4 bf 17 85 36 c0 fa d1 51 3f 95 a4 18 3f
       -1.4113506 -2.8518732 0.81961024 0.5962613
000040 28 de 45 3f 4c dd 9c bf f6 d3 45 bf 92 20 d4 be
       0.7729211 -1.2255034 -0.7727655 -0.414311
000050 f8 88 7f bf ff 8b 97 3f 4b b2 fb be 3e a4 99 3f
       -0.9981837 1.1839598 -0.49159464 1.2003248
000060 1e b9 ab 3f fd 9d 9e bf 27 d8 f6 3f b1 71 3e 3f
       1.3415868 -1.2391964 1.9284714 0.7439223
000070 36 7b 5f bf 01 b4 ce bf 53 df 33 bf 79 43 c3 3f
       -0.8729738 -1.6148683 -0.7026264 1.5254966
000080 db 4b d6 3e 90 76 74 3f bf 12 9b 3f d7 9c b6 be
       0.41854748 0.9549341 1.2115096 -0.35666534
000090 65 20 ce 3f 38 48 49 bf 97 95 4b 3f c3 0e 04 bf
       1.6103636 -0.7862582 0.7952513 -0.51585025
0000a0 f7 79 9f be 48 31 d6 3f 09 d2 ba bd 36 1a 57 3f
       -0.3114774 1.673379 -0.09122092 0.8402437
0000b0 34 c6 67 bf ed 50 8a 3f 20 d4 3b 3f 92 d5 06 3f
       -0.9053681 1.0805947 0.7337055 0.5266963
0000c0 90 05 9f 3f ea 7d 34 bf e7 0a 8f bf 41 01 09 3f
       1.2423573 -0.7050463 -1.1175202 0.5351754
0000d0 2a 1d 94 bf 27 61 08 bf 1d 94 fd be 0b 2a 4a be
       -1.15714 -0.5327324 -0.49527064 -0.197426
0000e0 07 60 17 bf 93 c3 96 bf 67 44 cc 3f a6 15 e2 3f
       -0.591309 -1.1778435 1.5958375 1.7662857
0000f0 2f ef 02 3f 50 24 1d 3e 5f d1 a3 bf 86 85 70 be
       0.51146215 0.15345883 -1.279827 -0.23488435
000100 5d 90 c7 3e f4 dd 95 be b8 ab 21 3f 8a b3 8e 3f
       0.38977328 -0.292709 0.63152647 1.1148541
000110 9c d6 57 bf 24 87 08 bf 52 79 d7 bf 0e 2e b1 be
       -0.8431184 -0.5333121 -1.6833899 -0.3460545
000120 a7 cf ac bf 88 08 8a bf 8b 37 20 bf 94 fa 96 3e
       -1.350087 -1.0783854 -0.6258475 0.2948805
000130 98 67 f5 3e 04 01 81 bf 68 d2 86 3d 88 b9 11 3e
       0.47930598 -1.0078435 0.065831006 0.14230931
000140 91 bf 61 40 78 4e 6e be 99 5d 00 3f de 44 2b bf
       3.5273173 -0.23272121 0.5014282 -0.6690196
000150 b8 df 80 bf e5 d6 b0 be d8 f2 7f 3f a3 f4 68 3f
       -1.0068274 -0.34538952 0.99979925 0.90998286
000160 81 b8 42 bf 25 40 b2 3f 76 97 60 bf bd 1d 1e 3f
       -0.7606278 1.3925825 -0.8773111 0.61764127
000170 c4 c8 54 bf fd ed b8 bf fb 92 e3 3e 41 1c ab 3f
       -0.83118844 -1.4447628 0.44448075 1.3367997
000180 43 6a 55 bf 01 91 08 bd d3 61 11 3f 08 8c ed 3f
       -0.8336527 -0.03334141 0.5678989 1.8558359
000190 90 fe 5c bf 8a dc 1a c0 2b f0 87 bf 6f ff cd bf
       -0.8632593 -2.4197106 -1.0620168 -1.6093577
0001a0 82 9a 32 3e ea 0d 15 c0 d8 cf 0e 3f 6b 8a 31 bd
       0.17441753 -2.3289742 0.55785894 -0.043344896
0001b0 fa 3a c0 3e 76 6b 88 3e 4b bf 8f 3f 6f 5b cb be
       0.37544996 0.26644486 1.1230253 -0.39718196
0001c0 6a 3b c2 bf 8a 2c 16 bd 14 e3 8e bf dd 98 42 bf
       -1.5174382 -0.03666357 -1.1163049 -0.760145
0001d0 51 cf 1b bd c1 54 24 3f e6 2c 8e 3f d4 bf 75 3f
       -0.03803951 0.64191824 1.1107452 0.9599583
0001e0 7c 0e b8 3f 70 cb 51 bc 44 68 25 40 3c d2 b0 3e
       1.437942 -0.012804851 2.5844889 0.34535396
0001f0 6d a5 3a be 90 b0 25 c0 7d 34 6f 3f f9 a5 8f be
       -0.18227167 -2.5889015 0.93439466 -0.28056315
000200 5d 2e 2e 3f 5f a4 1b bf af 80 cf 3f 7d 43 f7 bf
       0.68039495 -0.60797685 1.6211146 -1.9317471
000210 9a ce f3 bf 24 d1 bc bd 04 f9 db 3f bd b8 56 3f
       -1.9047425 -0.09219578 1.7185369 0.8387564
000220 30 d1 e0 be e3 eb a5 bf 2f 51 98 3f 27 cf db 3b
       -0.43909597 -1.2962612 1.1899775 0.006708044
000230 cc e1 10 3d c6 04 9a 3e 88 31 1e bf de c7 44 bc
       0.035371587 0.30081767 -0.6179433 -0.012010543
000240 3b f7 88 3f c1 a9 7f 3f b0 20 ac 3f 7a 38 e6 3f
       1.0700449 0.998684 1.3447475 1.7985985
000250 0e 61 2f 3f 20 14 d0 be c0 1a 24 bf b2 b8 a8 bf
       0.6850747 -0.40640354 -0.6410332 -1.3181365
000260 f0 1e 73 3f 36 df cb 3f 50 59 c4 3f 63 dc 05 bf
       0.9496908 1.5927494 1.5339756 -0.5228941
000270 2f 09 5e 3e 8a 4d 68 3f a9 18 72 3f b0 d9 c4 bf
       0.21683191 0.90743315 0.9456888 -1.5378933
000280 45 59 6a 3f 4b 2a f2 3f bb e3 a0 bf 5a 0b 0a 3f
       0.91542464 1.8919157 -1.2569498 0.5392357
000290 a7 50 e6 3f bb a1 dd 3e a2 6d 50 be 89 3f 0d 3f
       1.7993363 0.43287453 -0.20354322 0.5517507
0002a0 02 00 0a 3f 6f d1 be 3f 66 f5 30 3f 0d 41 58 3f
       0.5390626 1.4907664 0.6912445 0.8447426
0002b0 3a f3 47 3e e6 36 03 bf ff 1b ab 3d 6e 4a fb bf
       0.19526377 -0.51255643 0.08354949 -1.9632089
0002c0 89 34 4e 40 cb 7a e7 bf 39 5c 82 3f 30 ab da be
       3.2219565 -1.8084348 1.0184394 -0.4270873
0002d0 31 4a ca bf c3 8b c6 3f d7 b4 a6 3e 86 7d 0b bf
       -1.5803891 1.5511402 0.32559845 -0.5448841
0002e0 11 53 5a 3f ad 8d 4b 3d 7c 29 43 bf f8 ae bb 3e
       0.85283 0.04969566 -0.76235175 0.36656928
0002f0 b3 bf 1b bf 21 fa 4c 3f 29 e7 0b 40 f6 40 26 bd
       -0.60839385 0.80069166 2.185984 -0.040589295
000300 85 95 37 bf 42 cf 11 3f 48 34 e8 3e 47 30 c8 bf
       -0.71712524 0.56956875 0.45352387 -1.5639733
000310 d0 14 50 3f dd 04 0e be d7 7c cb 3e 01 70 12 3f
       0.8128176 -0.13869043 0.39743683 0.57202154
000320 04 60 37 be 41 c5 12 3f ce f2 25 bf 95 78 3e 3f
       -0.17907721 0.57332236 -0.64823616 0.74402744
000330 5e 89 8c 3f 3d 5f 33 bf ee 21 f3 3e 7a a9 75 3f
       1.0979421 -0.700672 0.47486824 0.95961726
000340 ac 1f 4f 3e 20 ec 5b bd c1 a1 a6 3f ed b1 0b be
       0.20226926 -0.053691983 1.3018113 -0.13642092
000350 97 ce 3e 3f e1 30 3d 3f 35 aa 0d bf 00 af 59 3f
       0.7453398 0.7390271 -0.5533784 0.85032654
000360 8b da e7 be 5c bd c3 be bd 46 b2 3f 71 e6 98 bf
       -0.45283923 -0.38230407 1.3927838 -1.1945325
000370 ba 6a 01 c0 fa e3 b6 be 96 84 e4 ba b2 44 45 c0
       -2.022139 -0.35720807 -0.0017434533 -3.0823178
000380 9c 45 4c bf df a2 43 3f ed 1f 43 3d 69 55 50 bb
       -0.79793715 0.76420397 0.04763787 -0.003178919
000390 ff dd d1 3e 68 5d 34 bd e0 f5 d2 be 10 ce 0a 3f
       0.40989682 -0.04403439 -0.41203213 0.54220676
0003a0 dc a1 82 3f eb 57 25 bf 7d 8c d2 3f 1f b2 a8 3f
       1.0205646 -0.6458728 1.6449124 1.3179358
0003b0 8a ca 4d bf e5 ff 9a bf 88 f7 96 3f 33 90 c1 3f
       -0.80387175 -1.2109343 1.179429 1.5122131
0003c0 57 dc 34 3f 31 50 12 40 cd 59 c6 be e8 09 8e bf
       0.7064871 2.2861445 -0.38740388 -1.1096773
0003d0 2d e8 e8 3e b6 b1 62 bc 52 b8 1f 40 ee 7d e9 3d
       0.45489636 -0.013836315 2.495625 0.11400972
0003e0 81 9a 98 3f 27 d0 73 bf 38 b0 93 bf e2 5f 16 be
       1.1922151 -0.9523949 -1.1538153 -0.14685014
0003f0 2a bf 46 be 06 cf 25 3f c3 a5 71 bf f5 45 34 3f
       -0.19408861 0.6476902 -0.9439356 0.70419246

lstm.W.weight f4 [512, 256]
000000 45 a3 24 bc eb a5 eb bd 27 13 96 bc 4f 39 11 3c
       -0.010048692 -0.11506256 -0.01831968 0.008863761
000010 d5 b5 c2 bc 85 1d 6f bd 8c 72 83 bd 3e d0 95 3d
       -0.023768345 -0.05837776 -0.064183325 0.0731511
000020 f6 7d 2d bd f6 bc e5 3c da 52 bc bc 0d a7 79 3d
       -0.042356454 0.028044205 -0.022988725 0.060950328
000030 95 d1 54 3d 5a 6f 87 bd f7 a7 2e 3d 7c 8c a5 3d
       0.051957686 -0.066130355 0.042640653 0.08083436
000040 f4 ce 08 bd 66 88 19 3c 80 87 6a 3d 5f 0e 07 3d
       -0.03340049 0.009370899 0.05725813 0.03297269
000050 75 df b0 3d 1c 2c 8c bd f4 57 b1 3d 56 a7 25 3d
       0.08636371 -0.06844351 0.08659354 0.040442787
000060 32 50 89 3d 0a 02 00 3d 84 8a 3f 3d 39 7f 26 3d
       0.06704749 0.031251945 0.04676296 0.040648673
000070 9d 5d 48 3c e1 5b a5 bd 77 4d f7 3c 9b 07 c1 3c
       0.01222935 -0.08074165 0.030188305 0.023563197
000080 df f5 5b 3d 18 2a 05 bd 8a d0 b8 3c fa 74 fb 38
       0.053701278 -0.032510847 0.022560377 0.00011990401
000090 d9 27 64 bd 81 12 08 be 84 05 47 3d 55 cf 8d 3d
       -0.055702064 -0.13288309 0.048589244 0.06924311
0000a0 88 32 61 3d c6 f9 e0 bc 6e ca 00 bd 2a bc 1f bc
       0.05497983 -0.027462851 -0.031443052 -0.009749452
0000b0 da f9 e1 3d 7d 9c d6 3c 69 92 cf 3d a9 94 0a 3c
       0.110339835 0.026197666 0.101353474 0.008458295
0000c0 c2 d7 c7 bc a1 9f 6e bd c4 f8 33 bd 81 38 2f bd
       -0.024394874 -0.058257703 -0.043938413 -0.042778496
0000d0 03 3e 6c bc 3e 67 0f bb 17 67 a4 bd 4d da 03 bc
       -0.014419082 -0.0021881605 -0.08027475 -0.008047652
0000e0 71 92 ae bd 93 45 da bc 3b f9 49 3d 2f 60 26 bd
       -0.08524025 -0.026644504 0.04930995 -0.04061907
0000f0 c0 f8 ac 3d 9c 76 a3 3c 12 8a b2 bd a9 6c 83 bc
       0.08445883 0.019954018 -0.08717741 -0.016043024
000100 7b 7d ee 3c fa 15 3b 3d f7 f5 a8 3c 0c 4d 71 3d
       0.029112568 0.045675255 0.020625098 0.05891137
000110 83 90 b0 bd 78 9f f5 3b 5e 59 d2 3d d4 df ad 3c
       -0.086213134 0.007495817 0.10270952 0.021224894
000120 2f dc d0 bd 1b c1 4a bb 56 48 d0 bd 34 7e 3b bd
       -0.10198247 -0.0030937854 -0.10170047 -0.045774654
000130 b6 26 37 bd d9 b0 ce bc c1 3c 0a 3d 0c 0d f9 bb
       -0.044714652 -0.025230812 0.033749346 -0.0076004323
000140 ea 85 87 3d 94 8a 6d 3d 24 b1 e1 3c 13 7a cf bc
       0.06617339 0.057993487 0.027550288 -0.025326764
000150 a7 7e 0b bd eb 4d 8e bb 23 7f ec 3c 1e 98 70 bd
       -0.034056332 -0.0043427846 0.028869217 -0.05873882
000160 43 d9 45 3d 51 2c 96 3d e8 3a d2 bc 4f df 82 3d
       0.0483029 0.073326714 -0.025662854 0.06390249
000170 1f 58 ea bc 18 39 e2 bd bc fa fa bb ad ee d4 3c
       -0.028606473 -0.11046046 -0.0076592844 0.025992716
000180 fe fd 92 3d b9 02 1d 3d c4 11 29 bd 15 a6 0c bd
       0.071773514 0.038332675 -0.04127671 -0.034338076
000190 55 6a ce 3b 6d 7d 78 bd 13 3c 06 bd 9e 82 d4 bd
       0.006299297 -0.06066649 -0.032772135 -0.10376476
0001a0 8b 02 cf bc 37 7b 31 3d 24 11 16 bd d0 8a 14 bd
       -0.025269767 0.043330397 -0.03663744 -0.036265194
0001b0 fd 8d 0c 3d be 8c 33 bd d8 55 83 3d 7c f2 29 bc
       0.034315098 -0.043835394 0.06412858 -0.010372754
0001c0 51 5e b6 3d dd 7c e7 bc 5c 5c 19 bd 43 bb c2 3c
       0.08904708 -0.028257782 -0.037441596 0.023770934
0001d0 37 ef 7b bc b7 45 91 3d 20 2b a9 bd a5 ac c0 bc
       -0.0153768575 0.07093375 -0.082601786 -0.023519823
0001e0 dc 83 8f bb 21 76 9b 3d 90 4f 0c 3d 5e 0e e2 3c
       -0.0043797325 0.07590891 0.034255564 0.027594741
0001f0 29 fa f3 3c 40 49 03 be cf 00 7f 3c f5 ec 8c bd
       0.029782372 -0.12820911 0.015564158 -0.068811335
000200 9a 78 9a 3d 39 1c 32 bc f9 10 91 bd ae 0d 40 3d
       0.07542534 -0.010870987 -0.070833154 0.046888046
000210 1e 85 38 bd 22 1d ea bc 59 0b 9c 3c e4 7a 87 bc
       -0.045048825 -0.028578345 0.01904838 -0.016538091
000220 b9 60 e4 bc b6 72 0a bd d8 d8 6c 3d c6 33 c3 bc
       -0.027878152 -0.033800803 0.057823986 -0.023828398
000230 c8 ee ad 3d fb 01 b0 bc 77 ca a7 bd 28 54 47 3d
       0.084928095 -0.02148532 -0.08192914 0.048664242
000240 03 6d cc bc 4b b5 1b 3d c2 ad 82 bd d8 f9 21 bd
       -0.024954325 0.03801469 -0.06380798 -0.03954491
000250 61 c9 23 bc a8 33 9b 3c f4 44 71 bd 74 a3 c4 bd
       -0.009996743 0.01894553 -0.05890365 -0.09601489
000260 82 2f 01 bc 5a ed 88 3d 4b 7e c2 bc 6c a2 4f 3d
       -0.007884862 0.06685896 -0.023741862 0.050692007
000270 de 1a 8b 3c e0 30 9c bd 02 a5 df bc bc 4b 6d bd
       0.016980585 -0.0762651 -0.027300362 -0.057933554
000280 73 b1 74 bd 6a 5c 0b bd 8e 99 07 bd 05 9d 22 bb
       -0.05973954 -0.03402368 -0.033105426 -0.002481283
000290 4a a4 b2 3b 7a 18 e3 3d 99 cd 8c bd 9d 72 5c bb
       0.0054517137 0.11088653 -0.06875152 -0.003363765
0002a0 ef 6d 3b 3c 2d 5a d0 3b 8a 7e b1 ba f6 22 d1 bc
       0.011439784 0.006358406 -0.001354174 -0.025529366
0002b0 61 16 3f 3d c2 a0 56 3d 77 9e f6 ba 76 d6 33 3c
       0.0466522 0.052399404 -0.0018815537 0.010976424
0002c0 0a 18 2f 3d 58 47 78 3d 14 7f 50 bb 9f 6e 0c 3b
       0.042747535 0.060614914 -0.0031814026 0.002142824
0002d0 ff 1c 55 bd 7f 05 88 3c c8 90 a1 3d 9d af 1f bc
       -0.052029606 0.016604183 0.07888943 -0.009746459
0002e0 11 d5 96 3d b0 17 6b bd fa 60 2d 3d 4e 95 43 3d
       0.07364858 -0.057395637 0.042328812 0.04774981
0002f0 2b 67 27 3d 85 1a ab bd 6e 99 1b bd b3 8e 73 bd
       0.040869873 -0.083546676 -0.03798812 -0.05946226
000300 d7 47 7a 3d 78 86 bb bd 30 a6 d8 bb 4b 55 82 bd
       0.061103668 -0.09156507 -0.006611608 -0.063639246
000310 00 50 ae 3c 9f e5 d1 3d e2 80 35 3d 40 7f 98 3c
       0.021278381 0.10248875 0.044312365 0.018615365
000320 34 96 76 bc d5 e6 10 bd 12 c3 20 bd 04 81 ac 3c
       -0.01505046 -0.03537639 -0.039248534 0.021057613
000330 70 e3 cf bd 44 04 2f bc 0a e3 88 bd 9a 3d b4 bd
       -0.10150802 -0.010682169 -0.06683929 -0.08800812
000340 e6 37 6c bc ff a6 12 3d 24 ee 4b bd 28 d3 a1 3d
       -0.014417624 0.03580379 -0.049787655 0.07901603
000350 6f 02 d4 bb 95 0d b6 3d f6 e8 c6 bd 55 99 a8 3b
       -0.0064700167 0.08889309 -0.097124025 0.0051452317
000360 a2 83 69 bd 87 ad b2 bd 70 45 5b bd 37 0f 6f 3d
       -0.0570103 -0.08724504 -0.053533018 0.05836412
000370 0a 16 57 3d 22 81 ba bd 02 a8 c0 bd c0 a7 56 3d
       0.052511252 -0.091066614 -0.09407045 0.052406073
000380 c9 7b 91 3d b4 3b 6c 3d 6c 79 df bd 26 52 7b 3d
       0.07103688 0.057674125 -0.10911831 0.06135764
000390 28 d7 14 be 7d cf 02 3d 56 4e 47 bd 5a ac 5e bc
       -0.145352 0.031936157 -0.04865869 -0.0135908965
0003a0 52 8c a5 3c 8a ed 25 3c f2 59 b5 3d 2e bf 7c bd
       0.020208512 0.0101274345 0.08855046 -0.06170576
0003b0 5c 60 e8 bc 70 a7 c7 3b 39 3a 6f bc cc 1c 0c bd
       -0.02836626 0.006092958 -0.014601284 -0.03420715
0003c0 a6 fc 04 3d 6f d4 4f bd a6 10 14 3b 47 6b 90 bd
       0.032467507 -0.0507397 0.002259293 -0.070517115
0003d0 6c f3 8e 3c ba b5 05 bd e1 df 30 3c ab b9 f9 ba
       0.017450057 -0.03264401 0.010795564 -0.0019052526
0003e0 03 3c d9 3c d3 02 fb 3b 48 84 26 3d b6 65 66 bd
       0.026517874 0.007660249 0.040653497 -0.056249343
0003f0 87 f6 14 bd 47 85 ad bd 3c 20 41 bd ef 57 02 3d
       -0.03636792 -0.08472686 -0.04714988 0.03182214

lstm.W.bias f4 [512]
000000 52 0b 73 3d 99 61 6b 3d d0 38 ad 3d da ce 3d 3c
       0.059336968 0.057466123 0.08458102 0.011584962
000010 df 6e 05 3e b1 5d 4d 3e 3d b3 fb 3d 01 db c9 3c
       0.13030575 0.20055272 0.12290046 0.024640562
000020 e4 38 8c 3d ba b5 97 3d 43 2e b1 3d ba 2b 3b 3d
       0.068467885 0.074077085 0.08651402 0.045695998
000030 ae 8d b3 3c 8d 18 02 3e 57 fe 48 3d 72 37 02 3e
       0.021918144 0.12704678 0.049070682 0.12716463
000040 68 10 dd 3d e8 81 f9 3c 41 46 25 3e 9f 9c 65 3d
       0.10794145 0.030457452 0.16140081 0.05605757
000050 66 ad 21 3d 88 86 56 3d 07 ad f0 3c 32 b1 8d 3d
       0.039472006 0.052374393 0.02937938 0.06918563
000060 a5 4f 21 3e f4 97 57 3c 00 a0 ce 3d d3 9c 4c 3d
       0.15753038 0.013158787 0.10089111 0.049954247
000070 6c bd 41 3d 89 df 32 3d 4e fc cc 3c 35 36 1f 3e
       0.047299787 0.04367021 0.025022652 0.15548022
000080 7d d8 b3 3c 5c 54 f8 3d f2 cf 25 3d f7 f3 52 bc
       0.021953816 0.12125465 0.040481515 -0.012875549
000090 e3 9e e4 3d f0 cc f4 3d af 55 f6 3d f4 d0 c6 3d
       0.11163118 0.11953151 0.120280616 0.097078234
0000a0 5e 9c 00 3e 8b d1 30 3d 60 f5 71 3d 93 cd e1 3d
       0.1255965 0.043168586 0.0590719 0.11025538
0000b0 00 7c 8b 3d 73 11 71 3d cd ba 31 3d 89 44 8a 3d
       0.068107605 0.05885453 0.043391038 0.06751353
0000c0 50 f8 07 3e e8 e2 f6 3d 63 00 79 3d 62 36 c7 3c
       0.13278317 0.12054998 0.060791384 0.024317924
0000d0 bd f3 98 3d f7 02 94 3d 89 df 83 3d a8 d7 73 3d
       0.074683644 0.07227128 0.0643912 0.059531838
0000e0 8b c3 08 3e 1a 98 8e 3d 06 ce c4 3d a3 74 91 3d
       0.13355844 0.06962605 0.09609608 0.07102325
0000f0 5e 03 19 3d 33 61 8e bc 73 52 df 3d 7e cd c6 3d
       0.037356727 -0.017380333 0.10904398 0.09707163
000100 1e a0 07 3e 4c 0c fa 3b 4c 3c c2 3c be f8 2f 3b
       0.13244674 0.0076308604 0.023710392 0.0026851143
000110 dc 4d d7 3d 38 84 04 bc 09 d6 b8 3d bb 72 12 3e
       0.10512897 -0.008088164 0.09025199 0.14301579
000120 d8 3f ca 3d 17 1d 54 3d 26 63 b4 3d 1f 92 a9 3d
       0.098754585 0.051785555 0.088079736 0.082798235
000130 8c b8 01 3c 1f c2 6b 3d 46 6f a6 3c ff 95 dc 3c
       0.007917535 0.057558175 0.020316731 0.026926992
000140 6a 8d f3 3d 63 bd e9 3d 91 66 36 3d f1 7b 0b 3e
       0.11892207 0.11413076 0.04453141 0.13621499
000150 35 a8 03 3e 0d 73 d0 3c 0e 5a 64 3d 46 2e 56 3d
       0.12857135 0.025445485 0.055749945 0.052290224
000160 cd 96 96 3d 02 e4 31 3d 9d 87 96 3d 64 45 3e 3d
       0.07352982 0.043430336 0.07350085 0.046452895
000170 fb 12 f6 3d 28 41 d4 3b 9c 2c 96 3d af fe de 3d
       0.12015339 0.006477494 0.07332727 0.10888421
000180 42 a0 ea 3d 83 bc 07 3e 1f b1 d8 3d 0a dd ae 3d
       0.11456348 0.13255505 0.10580658 0.085382536
000190 ad 10 f8 3d ce 05 04 3d 67 73 b7 3d b3 f3 c0 3d
       0.12112556 0.0322321 0.08957558 0.09421482
0001a0 c1 1c 1d 3d 88 7b 76 3d 6a 7b e5 3d 38 fb 24 3e
       0.0383575 0.060176402 0.1120518 0.16111457
0001b0 61 c7 5b 3d 30 70 06 3d b4 11 36 3d 2c cf d8 3d
       0.05365694 0.032821834 0.044450477 0.1058639
0001c0 4b eb 92 3d 8a 47 cd 3d 97 7c 93 3d 7f 29 0f 3e
       0.07173785 0.100234106 0.07201498 0.13980673
0001d0 d1 36 0a 3e f6 78 68 3d cd b9 64 3b 8f 58 a0 3c
       0.13497473 0.056755982 0.0034900785 0.019573478
0001e0 27 60 cb 3d 88 01 e0 3d 91 fe ce 3c 84 a3 37 3d
       0.09930449 0.10937792 0.025267871 0.044833675
0001f0 4c 00 0a 3e 7e a5 c5 3d 75 79 8d 3d 13 85 81 3b
       0.13476676 0.09650706 0.06907932 0.0039526313
000200 f9 ae 59 3d 0c 59 9f 3d aa 45 6f 3d f1 82 9b 3d
       0.053145383 0.07780656 0.058416046 0.075933345
000210 e9 8f 82 bc a3 55 b8 3c 4b 49 3f 3d a1 82 94 3d
       -0.015937762 0.022501772 0.046700757 0.07251478
000220 26 2b 02 3d 50 cc 20 3c 42 90 29 3d 87 98 07 3c
       0.03177943 0.009814337 0.04139734 0.008276111
000230 d9 10 b0 3d 02 6b 77 bc 40 dd c2 3b 14 2b a0 3d
       0.085969634 -0.015101196 0.005946785 0.078207165
000240 1b e5 de 39 f8 2b 0f 3d e8 71 4f ba 50 11 52 3d
       0.00042513837 0.03495404 -0.00079133967 0.05128604
000250 0b 86 5d 3d a2 d8 15 3d 41 d9 73 bb 68 8b e3 3c
       0.05408291 0.03658355 -0.003720835 0.027776435
000260 20 20 26 3d 5e 09 6c bb 83 48 56 3d e0 f1 08 3c
       0.04055798 -0.0036016325 0.052315246 0.008358449
000270 e6 13 a8 bc cb 89 b7 3c 4b df 6c 3c ff 96 c7 3d
       -0.0205173 0.022404572 0.014457534 0.09745597
000280 24 5d 1f bc 05 3a 9b 3d f0 b4 b8 3c e0 f7 0b 3c
       -0.009726796 0.07579426 0.022547215 0.008542985
000290 fc de 80 3d e5 02 75 3c f5 a4 31 3c f4 63 83 bc
       0.06292531 0.014954303 0.0108425515 -0.016038872
0002a0 27 96 7a 3d e6 5c 35 3d 4f ff c9 3d 79 c4 f0 3c
       0.061178353 0.044278048 0.098631494 0.02939056
0002b0 91 4d b7 3d 7a 9c 08 bd f6 7f e8 3b 7d 5c 12 3d
       0.089503415 -0.033352353 0.0070953323 0.035732735
0002c0 0e d5 28 3d 14 3f 05 3d b1 96 b8 bc 29 b0 cd 3c
       0.04121881 0.03253086 -0.022532793 0.025108414
0002d0 8c 78 c5 bc 0c e3 09 3c 11 e0 ac 3d 56 c4 29 3d
       -0.024105333 0.008415949 0.08441175 0.041447006
0002e0 3d 1a 92 3d c4 8f de 3c 02 1d 11 bd d2 f5 b9 3d
       0.07133911 0.027168162 -0.035428055 0.0908009
0002f0 69 6f e7 3b 68 dc 69 3d 70 8e 37 3c 8e e6 73 3d
       0.0070628417 0.05709496 0.011203393 0.059546046
000300 dd 5b b8 bc 61 f6 dd 3b cc 1c c5 3d cf ce ef 3d
       -0.022504741 0.0067737554 0.09624633 0.117093675
000310 d9 5d 0c 3d fa c2 cd 3c e2 fa 1a 3d 8e b6 c4 3c
       0.034269188 0.025117386 0.037836917 0.02401283
000320 bb e1 9d 3c 3e d7 1e bd fe d6 72 3d 7e 40 30 bd
       0.019272676 -0.03877949 0.059287064 -0.043030255
000330 25 68 83 3d 09 72 81 3a 5b 7d 28 3c 14 cf 51 bb
       0.06416348 0.0009875904 0.010283793 -0.0032014297
000340 30 57 28 3d 9f d6 18 3d 96 04 a2 3d 83 f7 3c 3c
       0.041098773 0.037314054 0.07911031 0.011533621
000350 4a 0b 64 3d 12 31 47 bd 5c 62 0f bd ea f5 e7 3b
       0.05567483 -0.04863078 -0.035005912 0.007078876
000360 dd 5d 45 3d 98 23 d7 bb c2 a4 11 3c 8d 69 09 bd
       0.048185218 -0.0065655224 0.008889379 -0.033547927
000370 ae e6 83 3c 3d 37 80 bb dd 45 45 3d 7a f8 7e 3b
       0.016101208 -0.003912835 0.04816233 0.0038905428
000380 50 70 68 bc d3 ac 84 bc f6 be 4f 3c d8 fd 2e 3d
       -0.014186934 -0.01619569 0.012679806 0.042722553
000390 72 73 85 bd 7d 34 9b 3c 9e fb eb 3b f6 80 5b 3d
       -0.0651616 0.018945927 0.007201626 0.053589784
0003a0 be f6 87 3c 07 82 e2 bc 5f 26 53 3d 5f 2b 5f 3d
       0.016597148 -0.027649892 0.051550265 0.05448472
0003b0 79 75 6b 3d 55 35 1a bd 56 f6 aa 3d 2a 79 19 bc
       0.057485078 -0.037648518 0.08347766 -0.009367267
0003c0 f4 e0 aa 3d a9 eb a8 3c b6 43 2a bc 0c b4 e2 bc
       0.08343688 0.020620184 -0.01039212 -0.027673744
0003d0 2b 2d a0 bb f7 b5 76 3d bb df 5b 3d 69 9f 4e 3d
       -0.004888197 0.06023213 0.053680163 0.050444994
0003e0 a5 84 02 3d fa 3e 50 3d 70 d3 1b 3d 35 92 da bc
       0.03186478 0.05084131 0.03804344 -0.026681045
0003f0 86 e5 1b 3d 0b be 95 3d f4 98 eb 39 45 11 18 3d
       0.038060687 0.073116384 0.00044936652 0.037125845

fc.weight f4 [61, 128]
000000 9f 95 6b bc 96 7c 9f bb b6 c3 01 3e ae 65 49 be
       -0.014378934 -0.0048671467 0.12672314 -0.19667694
000010 a0 8e b9 3d ee 23 ae 3d fb 51 a2 3c fa 71 a1 3d
       0.09060407 0.08502947 0.019814482 0.078830674
000020 9d ac fe bd e7 e1 0f 3d 2d 5e c3 bc ea df 8f 3b
       -0.12435267 0.035127547 -0.023848617 0.0043907063
000030 cf df a3 bd 74 09 65 3d 64 76 b8 3d c1 aa 8f 3d
       -0.080016725 0.05591722 0.09006956 0.070149906
000040 96 29 89 ba ab 7e 62 3d f0 18 dd bd 40 f6 4b bd
       -0.0010464664 0.05529658 -0.10795772 -0.04979539
000050 f4 87 f8 bd a5 5f d5 3d 71 28 9c 3b a0 9d ec 3d
       -0.12135306 0.10418633 0.004765563 0.11553502
000060 d8 a1 f1 bd 12 d6 c2 bd b1 98 34 bd 84 5c a2 3d
       -0.11798447 -0.09513487 -0.04409093 0.07927802
000070 70 3c 25 3e 4e 7b d6 3c 8f a9 f3 bc 5b bd 21 3d
       0.16136336 0.026181843 -0.029743938 0.039487224
000080 2e 50 0f 3d 20 c3 ec bd 9c f5 9e 3d d3 bd 81 3d
       0.034988575 -0.11560655 0.0776169 0.06335034
000090 24 db d1 bc 2f 01 14 bd 3f a2 9d 3c fc 05 9e 3c
       -0.02561719 -0.03613394 0.019242404 0.019289963
0000a0 32 f7 69 3d c4 93 1d be a9 46 18 3e c3 51 23 3c
       0.05712051 -0.153884 0.14870705 0.009968224
0000b0 5d 51 d8 3b a1 3c 39 be a0 74 0c 3e 7e 8e 56 3d
       0.006601496 -0.18089534 0.13716364 0.052381985
0000c0 d7 c7 77 be 81 9c 83 be d0 99 9a 3d 41 97 b1 bd
       -0.24197327 -0.2570534 0.07548869 -0.086714275
0000d0 0a 0d 98 3d d5 9c 18 bc 9d 69 65 bc 3e 48 8e 3e
       0.07424362 -0.009314735 -0.014002231 0.2778949
0000e0 e2 b1 3f be e2 2e f8 3b c5 23 a5 bd 0f 43 62 be
       -0.187202 0.0075739482 -0.08063463 -0.22095893
0000f0 f7 7e 2d be 78 42 c8 3d 63 ee 80 bc ca 11 08 3e
       -0.16942964 0.09778303 -0.015738672 0.13288036
000100 a3 5b 91 be 0b 2c 02 3e aa 4b 5a bd e0 d8 c9 bb
       -0.28390226 0.12712114 -0.053294815 -0.0061598867
000110 4e 25 bd 3d a4 f5 ca bd 11 00 be 3c 3b 69 00 3e
       0.09235631 -0.099101335 0.023193391 0.12540142
000120 04 73 1c 3d df 10 3d bd d2 36 45 3d 26 b9 1f bd
       0.038195625 -0.046158668 0.048147984 -0.03899493
000130 13 ec 2b 3c 28 6a 39 bc dc b9 90 bd 55 22 00 3d
       0.010493296 -0.0113168135 -0.070667 0.03128274
000140 09 d3 8d 3c 8b de 0f bd 4e 10 2c 3d 6a 9a 5d 3e
       0.017312543 -0.035124343 0.042007737 0.21640936
000150 c6 a2 92 bd ef 5b 17 3e 75 6d 9e 3d 79 06 c3 3d
       -0.07159953 0.14781164 0.07735721 0.09522719
000160 f3 54 9f bd fe 84 cf 3d 5c f9 9e bd 07 95 74 bd
       -0.07779875 0.10132788 -0.07762405 -0.059712436
000170 ea 7b a7 bd e5 02 80 3d af ed 94 bd fc 5b 55 be
       -0.081779316 0.06250552 -0.07271897 -0.2083587
000180 9f f3 5f 3b a0 49 24 bc 8d 60 ad bd df b4 32 3e
       0.003417231 -0.010027319 -0.08465681 0.1745181
000190 5e c8 39 3e 2c c5 08 3d 91 db 1e 3d ac 16 3a 3c
       0.1814284 0.033391163 0.038783614 0.011357944
0001a0 75 ff aa bc ad 5f 6c be c1 ff e4 bc 26 71 0a 3e
       -0.020873765 -0.23083372 -0.027953984 0.13519725
0001b0 57 9d 08 3d 24 5a 9f 3d b5 4b 40 bd 5e 91 19 3e
       0.033353176 0.07780865 -0.0469472 0.1499686
0001c0 94 2d 9f 3d cd 91 4b bd 9a c5 56 3d dc fc 68 bb
       0.07772365 -0.049699593 0.05243454 -0.0035551107
0001d0 16 51 91 3c b8 ba a9 bd 66 e6 ae bd 9c 6f 5d 3d
       0.01773886 -0.08287567 -0.08540039 0.054061517
0001e0 24 77 27 3d d4 63 5b bd f2 3d b6 bb ef fa be 3d
       0.040885106 -0.053562 -0.0055615837 0.093252055
0001f0 41 14 f6 bd 40 3d 08 3d 60 a0 9b bd 69 59 88 bb
       -0.12015582 0.033261538 -0.075989485 -0.004161049
000200 62 35 0a 3e 57 f4 53 3e 82 eb 1f be 56 dc ce 3d
       0.13496926 0.20698677 -0.15617183 0.101006195
000210 eb 78 1e be 75 8e b3 3d 58 b7 39 bc cd f6 95 bd
       -0.15475814 0.08767406 -0.011335216 -0.07322464
000220 0f 37 53 be 28 11 12 bd 56 82 29 be 74 99 23 3e
       -0.20626472 -0.035660893 -0.16553625 0.15976506
000230 bc ac a7 3d 98 44 d3 3d fd 59 cb bd 30 78 bd 3d
       0.08187243 0.103158176 -0.09929273 0.092514396
000240 71 c2 91 bc bf 4a 1c 3e f1 57 ae 3d 7a 73 db 3d
       -0.017792912 0.15262888 0.08512867 0.10715385
000250 1d 66 ee 3d 32 5f 7e 3e c9 ac 4b 3e 9d 90 00 bd
       0.1164057 0.24841002 0.19890131 -0.031387914
000260 f7 22 ec bd df 21 f9 bd 67 85 b6 3d 22 40 92 3c
       -0.115301065 -0.121646635 0.08912163 0.017852847
000270 79 08 4b 3e d0 5e 84 bd b8 8f 54 be bc 48 86 bd
       0.19827451 -0.064633965 -0.2075795 -0.06556842
000280 bf ca 63 bd 69 ca d6 3d 65 fe cb bd 55 5c 86 3d
       -0.055613276 0.104878254 -0.09960631 0.0656058
000290 06 0c 20 3d 1a 42 b1 bd cf 44 33 3e dc fe 5a 3d
       0.039073966 -0.08655186 0.17506717 0.05346571
0002a0 b3 af 80 3e 15 36 ae 3d 13 04 a7 bd 9b f3 df 3c
       0.25134048 0.08506409 -0.08155074 0.02733784
0002b0 e2 ac 16 bc 41 b4 82 be 6e 47 80 bd de e9 31 3e
       -0.009196492 -0.25528148 -0.06263624 0.1737437
0002c0 ef 5a bf 3b 33 a4 70 3c 0d 3d 38 be be ec 27 be
       0.0058396976 0.014687586 -0.17992039 -0.16398904
0002d0 93 d6 8d bc 78 a2 f0 bb a7 f5 9c bd 8e ad 77 3c
       -0.017314231 -0.0073435865 -0.07664042 0.015117062
0002e0 a7 c7 4b 3d 27 dc ee 3d 80 35 89 3d a3 91 f6 3d
       0.04975095 0.116630845 0.066996574 0.12039497
0002f0 fc 44 4c 3d f7 02 47 3e 54 26 f7 bc 75 04 40 3e
       0.049870476 0.19434725 -0.030169643 0.187517
000300 91 e5 0c 3e 36 26 66 3e 08 68 78 3d 40 59 ca bc
       0.13759448 0.22475514 0.060646087 -0.02470076
000310 7a b4 9a 3d 8c 0e 4c 3d bf f3 98 3d 11 f8 af bc
       0.075539544 0.04981856 0.07468366 -0.021480592
000320 a8 1b c4 bc 0b ef 97 bd ef 30 8a bd ea 05 0c 3e
       -0.023938969 -0.07418641 -0.067476146 0.13674131
000330 d9 c6 49 3e eb c8 06 3e 05 10 b3 bd 2f 5a 3d bd
       0.1970476 0.13162582 -0.0874329 -0.046228584
000340 0c 32 9d 3d 94 97 03 3e 25 41 d7 bc 51 47 00 be
       0.07675561 0.12850791 -0.02627618 -0.12527205
000350 85 98 e7 bd e2 6a 31 be f5 f6 a0 bd 91 cf b7 bd
       -0.11308388 -0.17325929 -0.07859603 -0.08975137
000360 a7 5f e2 bd fa 54 3c bd 4b 8e 7f bd 2a aa 76 bc
       -0.110534005 -0.045979477 -0.06239156 -0.015055219
000370 93 58 db 3d e5 3e ce bd 3b 5c 13 be cb 84 fe 3d
       0.107102536 -0.1007059 -0.14390652 0.12427672
000380 55 6e d3 3d 2c 8b d0 bd d9 c3 d2 bd 22 95 90 3d
       0.103237785 -0.10182795 -0.10291261 0.07059695
000390 bb b3 86 3e cf be 91 3d 85 c2 eb bd 09 64 06 3e
       0.26308998 0.07116472 -0.11511711 0.13124098
0003a0 75 57 de 3d a0 ab c6 3c 40 b8 b4 3d e9 69 6d 3e
       0.10856525 0.024251759 0.088242054 0.23184933
0003b0 61 78 05 3e 89 c5 8e 3e a4 4f eb bc a5 0e c3 3d
       0.13034202 0.27885082 -0.028724499 0.095242776
0003c0 4e 40 e6 bd 42 5a a9 bc 35 67 d2 bd fc 7f 76 bd
       -0.11242734 -0.020672921 -0.102735914 -0.06018065
0003d0 51 9d e5 bd 45 6d f2 3d 9c 83 23 3e ae 85 0a 3e
       -0.11211646 0.11837248 0.15968174 0.13527557
0003e0 26 db b3 bd 94 4d 8c bc 0d f7 ac 3d f2 0e 2b 3e
       -0.087820336 -0.017126836 0.08445559 0.1670492
0003f0 20 d5 07 3c 0a 76 f2 bc 2b 1b 90 3d eb a3 32 be
       0.008290559 -0.029597301 0.07036432 -0.17445342

fc.bias f4 [61]
000000 5d 61 ab 3d 58 f1 15 3c ef 02 8c be 55 34 62 be
       0.0836818 0.009151779 -0.27345988 -0.22090276
000010 16 4d 10 bd 60 11 ab bd f6 04 89 be fc 8f fd 3c
       -0.035229765 -0.083529234 -0.26761597 0.030952446
000020 02 6c 7c 3c 2e 75 df bd 36 62 cd bd 6b 08 c9 bd
       0.01540661 -0.10911022 -0.10028498 -0.09816059
000030 75 76 70 bd 31 eb 5d bd 65 11 74 be 61 5f d3 bd
       -0.05870672 -0.054179374 -0.2383476 -0.103209265
000040 84 48 8b 3c 9c 98 6a 3d 6d 6d 3a be 5f 05 37 3d
       0.017002352 0.057274446 -0.18205805 0.044682857
000050 9a d7 56 be 63 c5 48 be 3e 41 11 be aa 16 37 be
       -0.20980683 -0.19606547 -0.14185044 -0.1787974
000060 5c 4e 05 3d cb 9e 2e bc de ef ea bd b3 06 04 be
       0.032545432 -0.010657976 -0.11471532 -0.1289318
000070 9f 8a 38 3a 30 26 27 3b 9e 97 0e 3d 71 d6 51 bc
       0.0007039699 0.002550494 0.034812562 -0.0128074745
000080 0e 7f 50 bd 59 b3 ce bd d7 22 71 be 07 d9 9f 3d
       -0.05090242 -0.100928016 -0.23548447 0.078050666
000090 e2 88 10 bd af 79 9b 3d 2f 46 da bc 86 e5 8c bd
       -0.03528679 0.07591569 -0.026644794 -0.068797156
0000a0 d5 37 55 bb 56 8e 5c bd 6a 62 12 bc 05 d8 1a bd
       -0.00325345 -0.05384668 -0.008934597 -0.03780367
0000b0 46 8d 1b be 76 c7 18 bd 47 30 8a bd 75 1d 95 bd
       -0.1519061 -0.037299596 -0.067474894 -0.07281009
0000c0 47 ff 95 3d f8 82 8c 3d c0 ff 91 bd f3 b8 1a be
       0.07324081 0.06860918 -0.071288586 -0.15109615
0000d0 97 22 fd ba 44 74 3c 3d d7 99 a6 3d 76 b4 c9 bc
       -0.0019312677 0.046009317 0.08134811 -0.024622183
0000e0 8e a5 16 3d 27 c4 c3 bd 00 22 8a be 2a f2 32 3d
       0.03677898 -0.095588975 -0.26979065 0.043687977
0000f0 1c 62 5d be
       -0.21619457
